…
nExtracting data\\cifar-10-python.tar.gz to data\nFiles already downloaded and verified\n\n\n100%|██████████| 170498071/170498071 [00:36&lt;00:00, 4632622.12it/s]\n\n\n\nprint(train.data.shape)\n\n(50000, 32, 32, 3)\n\n\n\nfrom torchinfo import summary\nsummary(model, input_size=(1, 3, 32, 32))\n\n==========================================================================================\nLayer (type:depth-idx)                   Output Shape              Param #\n==========================================================================================\nVGG                                      [1, 10]                   --\n├─Sequential: 1-1                        [1, 512, 1, 1]            --\n│    └─Conv2d: 2-1                       [1, 64, 32, 32]           1,792\n│    └─ReLU: 2-2                         [1, 64, 32, 32]           --\n│    └─Conv2d: 2-3                       [1, 64, 32, 32]           36,928\n│    └─ReLU: 2-4                         [1, 64, 32, 32]           --\n│    └─MaxPool2d: 2-5                    [1, 64, 16, 16]           --\n│    └─Conv2d: 2-6                       [1, 128, 16, 16]          73,856\n│    └─ReLU: 2-7                         [1, 128, 16, 16]          --\n│    └─Conv2d: 2-8                       [1, 128, 16, 16]          147,584\n│    └─ReLU: 2-9                         [1, 128, 16, 16]          --\n│    └─MaxPool2d: 2-10                   [1, 128, 8, 8]            --\n│    └─Conv2d: 2-11                      [1, 256, 8, 8]            295,168\n│    └─ReLU: 2-12                        [1, 256, 8, 8]            --\n│    └─Conv2d: 2-13                      [1, 256, 8, 8]            590,080\n│    └─ReLU: 2-14                        [1, 256, 8, 8]            --\n│    └─Conv2d: 2-15                      [1, 256, 8, 8]            590,080\n│    └─ReLU: 2-16                        [1, 256, 8, 8]            --\n│    └─MaxPool2d: 2-17                   [1, 256, 4, 4]            --\n│    └─Conv2d: 2-18                      [1, 512, 4, 4]            1,180,160\n│    └─ReLU: 2-19                        [1, 512, 4, 4]            --\n│    └─Conv2d: 2-20                      [1, 512, 4, 4]            2,359,808\n│    └─ReLU: 2-21                        [1, 512, 4, 4]            --\n│    └─Conv2d: 2-22                      [1, 512, 4, 4]            2,359,808\n│    └─ReLU: 2-23                        [1, 512, 4, 4]            --\n│    └─MaxPool2d: 2-24                   [1, 512, 2, 2]            --\n│    └─Conv2d: 2-25                      [1, 512, 2, 2]            2,359,808\n│    └─ReLU: 2-26                        [1, 512, 2, 2]            --\n│    └─Conv2d: 2-27                      [1, 512, 2, 2]            2,359,808\n│    └─ReLU: 2-28                        [1, 512, 2, 2]            --\n│    └─Conv2d: 2-29                      [1, 512, 2, 2]            2,359,808\n│    └─ReLU: 2-30                        [1, 512, 2, 2]            --\n│    └─MaxPool2d: 2-31                   [1, 512, 1, 1]            --\n├─AdaptiveAvgPool2d: 1-2                 [1, 512, 7, 7]            --\n├─Sequential: 1-3                        [1, 10]                   --\n│    └─Linear: 2-32                      [1, 4096]                 102,764,544\n│    └─ReLU: 2-33                        [1, 4096]                 --\n│    └─Dropout: 2-34                     [1, 4096]                 --\n│    └─Linear: 2-35                      [1, 4096]                 16,781,312\n│    └─ReLU: 2-36                        [1, 4096]                 --\n│    └─Dropout: 2-37                     [1, 4096]                 --\n│    └─Linear: 2-38                      [1, 10]                   40,970\n==========================================================================================\nTotal params: 134,301,514\nTrainable params: 134,301,514\nNon-trainable params: 0\nTotal mult-adds (Units.MEGABYTES): 433.06\n==========================================================================================\nInput size (MB): 0.01\nForward/backward pass size (MB): 2.28\nParams size (MB): 537.21\nEstimated Total Size (MB): 539.50\n==========================================================================================",
…
